…
/home/sit/msr/siy207566/.cache/torch/hub/facebookresearch_dinov2_main/dinov2/layers/block.py:40: UserWarning: xFormers is not available (Block)
  warnings.warn("xFormers is not available (Block)")
======> Process Arguments
======> Set Parameters for Training
======> Load Dataset-Specific Parameters
../data/endovis_2018/val/binary_annotations_coco
val_dataset length: 1376
../data/endovis_2018/val/binary_annotations_coco_b
val_dataset_b length: 1376
./segms/
val_dataset_pred length: 1463
cuda
self.decode_type: linear4
backbone_size;giant
SurgicalDINOCLassifier(
  (dinov2): DINOv2WithLearnableQueries(
    (model): DinoVisionTransformer(
      (patch_embed): PatchEmbed(
        (proj): Conv2d(3, 768, kernel_size=(14, 14), stride=(14, 14))
        (norm): Identity()
      )
      (blocks): ModuleList(
        (0-11): 12 x NestedTensorBlock(
          (norm1): LayerNorm((768,), eps=1e-06, elementwise_affine=True)
          (attn): MemEffAttention(
            (qkv): _LoRA_qkv(
              (qkv): Linear(in_features=768, out_features=2304, bias=True)
              (linear_a_q): Linear(in_features=768, out_features=4, bias=False)
              (linear_b_q): Linear(in_features=4, out_features=768, bias=False)
              (linear_a_v): Linear(in_features=768, out_features=4, bias=False)
              (linear_b_v): Linear(in_features=4, out_features=768, bias=False)
            )
            (attn_drop): Dropout(p=0.0, inplace=False)
            (proj): Linear(in_features=768, out_features=768, bias=True)
            (proj_drop): Dropout(p=0.0, inplace=False)
          )
          (ls1): LayerScale()
          (drop_path1): Identity()
          (norm2): LayerNorm((768,), eps=1e-06, elementwise_affine=True)
          (mlp): Mlp(
            (fc1): Linear(in_features=768, out_features=3072, bias=True)
            (act): GELU(approximate='none')
            (fc2): Linear(in_features=3072, out_features=768, bias=True)
            (drop): Dropout(p=0.0, inplace=False)
          )
          (ls2): LayerScale()
          (drop_path2): Identity()
        )
      )
      (norm): LayerNorm((768,), eps=1e-06, elementwise_affine=True)
      (head): Identity()
    )
    (cross_attn): MultiheadAttention(
      (out_proj): NonDynamicallyQuantizableLinear(in_features=768, out_features=768, bias=True)
    )
  )
  (linear_head): LinearClassifier(
    (avgpool): AdaptiveAvgPool1d(output_size=1)
    (fc): Linear(in_features=3072, out_features=7, bias=True)
  )
  (loss_fn): CrossEntropyLoss()
)
======> Define Optmiser and Loss
======> Set Saving Directories and Logs
Namespace(checkpoint=False, dataset='endovis_2018', fold=0)
log_file ./work_dirs/dinov2_LQ_LORA_ev18_default_full_adamw_Base/log.txt
======> Start Training and Validation
../data/endovis_2018/train
Unique sample weights: {0.0001418842224543297, 2.178744171811871e-05, 2.727099184522973e-05, 0.00013446282101190496, 1.946813066971405e-05, 0.0018761726043599013, 0.00017943656914059993}
…
